INFO:[MoStressNeuralNetwork Wrapper] Starting MoStress with model: NBEATS-FEATURE-EXTRACTOR-ADAM.

Model: "sequential"
_________________________________________________________________
Layer (type)                 Output Shape              Param #   
=================================================================
dense (Dense)                (None, 30, 256)           107520    
_________________________________________________________________
re_lu (ReLU)                 (None, 30, 256)           0         
_________________________________________________________________
dropout (Dropout)            (None, 30, 256)           0         
_________________________________________________________________
dense_1 (Dense)              (None, 30, 128)           32896     
_________________________________________________________________
re_lu_1 (ReLU)               (None, 30, 128)           0         
_________________________________________________________________
dropout_1 (Dropout)          (None, 30, 128)           0         
_________________________________________________________________
flatten (Flatten)            (None, 3840)              0         
_________________________________________________________________
dense_2 (Dense)              (None, 3)                 11523     
_________________________________________________________________
activation (Activation)      (None, 3)                 0         
=================================================================
Total params: 151,939
Trainable params: 151,939
Non-trainable params: 0
_________________________________________________________________
INFO:[MoStressNeuralNetwork Wrapper] 
Compiling model with optimizer: adam

INFO:[MoStressNeuralNetwork Wrapper] 
Model Compiled

INFO:[MoStressNeuralNetwork Wrapper] 
Fitting Model

INFO:[MoStressNeuralNetwork Wrapper] 
…
